…
测试集大小: 185, 测试集时间: 2020-06-20 00:00:00 - 2021-03-23 00:00:00
创建新的dataloader并保存...
#---------------------------------------------------------------------------------------------------#




















































100%|██████████| 1827/1827 [01:47<00:00, 17.04it/s]
窗口数: 1827，Data[0]: Data(x=[39, 30], edge_index=[2, 38], y=[1, 1], target_node_index=[1])
未找到预训练权重，开始训练模型
#---------------------------------------------------------------------------------------------------#
GC_TCN(
  (conv1): GCNConv(30, 96)
  (conv2): GCNConv(96, 96)
  (tcn): TemporalConvNet(
    (network): Sequential(
      (0): TemporalBlock(
        (conv1): Conv1d(96, 64, kernel_size=(2,), stride=(1,), padding=(1,))
        (chomp1): Chomp1d()
        (relu1): ReLU()
        (dropout1): Dropout(p=0.4, inplace=False)
        (conv2): Conv1d(64, 64, kernel_size=(2,), stride=(1,), padding=(1,))
        (chomp2): Chomp1d()
        (relu2): ReLU()
        (dropout2): Dropout(p=0.4, inplace=False)
        (net): Sequential(
          (0): Conv1d(96, 64, kernel_size=(2,), stride=(1,), padding=(1,))
          (1): Chomp1d()
          (2): ReLU()
          (3): Dropout(p=0.4, inplace=False)
          (4): Conv1d(64, 64, kernel_size=(2,), stride=(1,), padding=(1,))
          (5): Chomp1d()
          (6): ReLU()
          (7): Dropout(p=0.4, inplace=False)
        )
        (downsample): Conv1d(96, 64, kernel_size=(1,), stride=(1,))
        (relu): ReLU()
      )
      (1): TemporalBlock(
        (conv1): Conv1d(64, 32, kernel_size=(2,), stride=(1,), padding=(2,), dilation=(2,))
        (chomp1): Chomp1d()
        (relu1): ReLU()
        (dropout1): Dropout(p=0.4, inplace=False)
        (conv2): Conv1d(32, 32, kernel_size=(2,), stride=(1,), padding=(2,), dilation=(2,))
        (chomp2): Chomp1d()
        (relu2): ReLU()
        (dropout2): Dropout(p=0.4, inplace=False)
        (net): Sequential(
          (0): Conv1d(64, 32, kernel_size=(2,), stride=(1,), padding=(2,), dilation=(2,))
          (1): Chomp1d()
          (2): ReLU()
          (3): Dropout(p=0.4, inplace=False)
          (4): Conv1d(32, 32, kernel_size=(2,), stride=(1,), padding=(2,), dilation=(2,))
          (5): Chomp1d()
          (6): ReLU()
          (7): Dropout(p=0.4, inplace=False)
        )
        (downsample): Conv1d(64, 32, kernel_size=(1,), stride=(1,))
        (relu): ReLU()
      )
      (2): TemporalBlock(
        (conv1): Conv1d(32, 16, kernel_size=(2,), stride=(1,), padding=(4,), dilation=(4,))
        (chomp1): Chomp1d()
        (relu1): ReLU()
        (dropout1): Dropout(p=0.4, inplace=False)
        (conv2): Conv1d(16, 16, kernel_size=(2,), stride=(1,), padding=(4,), dilation=(4,))
        (chomp2): Chomp1d()
        (relu2): ReLU()
        (dropout2): Dropout(p=0.4, inplace=False)
        (net): Sequential(
          (0): Conv1d(32, 16, kernel_size=(2,), stride=(1,), padding=(4,), dilation=(4,))
          (1): Chomp1d()
          (2): ReLU()
          (3): Dropout(p=0.4, inplace=False)
          (4): Conv1d(16, 16, kernel_size=(2,), stride=(1,), padding=(4,), dilation=(4,))
          (5): Chomp1d()
          (6): ReLU()
          (7): Dropout(p=0.4, inplace=False)
        )
        (downsample): Conv1d(32, 16, kernel_size=(1,), stride=(1,))
        (relu): ReLU()
      )
    )
  )
  (linear): Linear(in_features=16, out_features=1, bias=True)
)
#---------------------------------------------------------------------------------------------------#
#--------------------------------------------开始训练模型--------------------------------------------#






Epoch 1/1000 [1461/1461] [==============================] - 16s 16us/sample - loss: 1.0266 - r2: -0.0035 - val_loss: 0.9010 - val_r2: 0.0005
[INFO] Epoch [1/1000] Train Loss: 1.0266, Val Loss: 0.9010, save with best val loss: 0.9010
…
